DrummerNet(
  (unet): ValidAutoUnet(
    (d_conv0): Conv1d(1, 50, kernel_size=(3,), stride=(1,), bias=False)
    (d_convs): ModuleList(
      (0): Conv1d(50, 50, kernel_size=(3,), stride=(1,), bias=False)
      (1): Conv1d(50, 50, kernel_size=(3,), stride=(1,), bias=False)
      (2): Conv1d(50, 50, kernel_size=(3,), stride=(1,), bias=False)
      (3): Conv1d(50, 50, kernel_size=(3,), stride=(1,), bias=False)
      (4): Conv1d(50, 50, kernel_size=(3,), stride=(1,), bias=False)
      (5): Conv1d(50, 50, kernel_size=(3,), stride=(1,), bias=False)
      (6): Conv1d(50, 50, kernel_size=(3,), stride=(1,), bias=False)
      (7): Conv1d(50, 50, kernel_size=(3,), stride=(1,), bias=False)
      (8): Conv1d(50, 50, kernel_size=(3,), stride=(1,), bias=False)
      (9): Conv1d(50, 50, kernel_size=(3,), stride=(1,), bias=False)
    )
    (pools): ModuleList(
      (0): MaxPool1d(kernel_size=2, stride=2, padding=0, dilation=1, ceil_mode=False)
      (1): MaxPool1d(kernel_size=2, stride=2, padding=0, dilation=1, ceil_mode=False)
      (2): MaxPool1d(kernel_size=2, stride=2, padding=0, dilation=1, ceil_mode=False)
      (3): MaxPool1d(kernel_size=2, stride=2, padding=0, dilation=1, ceil_mode=False)
      (4): MaxPool1d(kernel_size=2, stride=2, padding=0, dilation=1, ceil_mode=False)
      (5): MaxPool1d(kernel_size=2, stride=2, padding=0, dilation=1, ceil_mode=False)
      (6): MaxPool1d(kernel_size=2, stride=2, padding=0, dilation=1, ceil_mode=False)
      (7): MaxPool1d(kernel_size=2, stride=2, padding=0, dilation=1, ceil_mode=False)
      (8): MaxPool1d(kernel_size=2, stride=2, padding=0, dilation=1, ceil_mode=False)
      (9): MaxPool1d(kernel_size=2, stride=2, padding=0, dilation=1, ceil_mode=False)
    )
    (encode_conv): Conv1d(50, 50, kernel_size=(3,), stride=(1,), bias=False)
    (u_convs): ModuleList(
      (0): Conv1d(50, 50, kernel_size=(3,), stride=(1,), bias=False)
      (1): Conv1d(100, 50, kernel_size=(3,), stride=(1,), bias=False)
      (2): Conv1d(100, 50, kernel_size=(3,), stride=(1,), bias=False)
      (3): Conv1d(100, 50, kernel_size=(3,), stride=(1,), bias=False)
      (4): Conv1d(100, 50, kernel_size=(3,), stride=(1,), bias=False)
      (5): Conv1d(100, 50, kernel_size=(3,), stride=(1,), bias=False)
    )
    (last_conv): Conv1d(100, 100, kernel_size=(3,), stride=(1,))
  )
  (recurrenter): Recurrenter(
    (midi_x2h): GRU(100, 11, batch_first=True, bidirectional=True)
    (midi_h2hh): GRU(22, 11, batch_first=True)
    (midi_hh2y): GRU(1, 1, bias=False, batch_first=True)
  )
  (double_sparsemax): MultiplySparsemax(
    (sparsemax_inst): Sparsemax()
    (sparsemax_time): Sparsemax()
  )
  (zero_inserter): ZeroInserter()
  (synthesizer): FastDrumSynthesizer()
…
